autoencoder/conv_autoencoder.pth (torch_old, 24873 bytes, 9 tensors)

encoder.0.weight f4 [16, 1, 3, 3]
0	0x3eb6f9c1	0.35737422
1	0x3e31fadf	0.17380856
2	0x3e5524b8	0.20814788
3	0xbd64ad5d	-0.055829395
4	0xbd47750d	-0.048695613
5	0x3d70a777	0.058753457
6	0x3df7cedb	0.121000014
7	0x3e6777e3	0.22604327
8	0x3e456702	0.19277576
9	0xbc4103af	-0.011780663
10	0xbec58aeb	-0.38582548
11	0x3dd55814	0.1041719
12	0xbdef8415	-0.116951145
13	0xbe5b4512	-0.21413067
14	0x3e20cd58	0.15703332
15	0xbe0db065	-0.1383682
16	0xbe73a1b5	-0.23792155
17	0x3f103114	0.5632489
18	0xbe33436d	-0.1750619
19	0x3e83d7da	0.2575062
20	0x3e22a755	0.15884145
21	0xbebbd57f	-0.36686322
22	0x3ea49cca	0.3215087
23	0xbe390318	-0.18067586
24	0x3df54f61	0.11978031
25	0x3edaeae9	0.42757347
26	0xbdc1a80e	-0.09455882
27	0x3e87690a	0.26447326
28	0x3e37de35	0.17955859
29	0x3e1ecbc4	0.15507418
30	0xbe90ee62	-0.28306872
31	0xbcdc7f34	-0.026916124
32	0xbe8b2c4b	-0.2718223
33	0xbe4f42b1	-0.20240285
34	0xbe1f4de5	-0.15557058
35	0xbe2c7eac	-0.16845196
36	0xbdbdfbce	-0.092765436
37	0xbe7c9472	-0.24666002
38	0x3d57aac7	0.0526531
39	0x3ec0ea45	0.37678733
40	0x3d9e6d5f	0.07735705
41	0x3f0ca0d7	0.5493292
42	0xbe0f13d2	-0.13972405
43	0xbd136753	-0.03598721
44	0x3e35de2e	0.17760536
45	0x3e75338b	0.23945443
46	0x3e92d799	0.28680113
47	0x3ebb094d	0.36530533
48	0xbea4ccb4	-0.32187426
49	0xbdf140da	-0.117799476
50	0xbd2422d0	-0.040072262
51	0xbe284ba7	-0.16435109
52	0xbe08e13f	-0.13367175
53	0x3c9c5abe	0.019086238
54	0x3dffe6bf	0.12495183
55	0x3e10d21a	0.14142647
56	0x3e9402bf	0.28908345
57	0x3ebce0ff	0.36890408
58	0x3cf6d5c0	0.03013122
59	0xbba05fdc	-0.00489424
60	0x3e31babb	0.17356388
61	0xbe97b434	-0.29629672
62	0xbe2cea0d	-0.16886158
63	0x3f21b1be	0.6316184
64	0xbe48730c	-0.19575137
65	0xbe5962cc	-0.21229094
66	0xbd928531	-0.071543105
67	0x3a95ae49	0.0011419739
68	0xbe8e46bc	-0.2778834
69	0xbdf48080	-0.11938572
70	0xbee3ead3	-0.44515094
71	0xbecf60fd	-0.40503684
72	0xbc2333dd	-0.009961096
73	0xbd5a3252	-0.053270645
74	0xbe698455	-0.22804387
75	0xbd3704e2	-0.04468239
76	0x3d26a50c	0.040684745
77	0xbdee1475	-0.116249956
78	0x3d927b7e	0.071524605
79	0x3cdbb966	0.026821803
80	0x3d8bf0d6	0.06833045
81	0x3ca12aef	0.019673793
82	0xbefbef7b	-0.49206147
83	0xbdc2a669	-0.095043965
84	0x3e980c02	0.2969666
85	0xbd4d52cf	-0.0501278
86	0x3d197baa	0.03747145
87	0x3eac4cfd	0.33652487
88	0xbed2f690	-0.41203737
89	0xbeaa4c0c	-0.33261144
90	0xbf1257c0	-0.57165146
91	0x3b4388a2	0.0029836078
92	0xbd453cad	-0.048153568
93	0xbc411358	-0.011784397
94	0x3c4b0c99	0.01239314
95	0x3d9403af	0.07227265
96	0xbd2ff04f	-0.042953786
97	0xbd78f756	-0.060782753
98	0xbdf08113	-0.11743369
99	0xbe813456	-0.25235242
100	0xbede9cf9	-0.43479136
101	0x3e9eafb2	0.3099342
102	0xbd0b64e0	-0.03403175
103	0x3d50257f	0.05081701
104	0x3db6fa0f	0.08934414
105	0xbf420334	-0.7578614
106	0xbe8af60f	-0.27140853
107	0xbeb2d3f6	-0.34927338
108	0xbf0dad3d	-0.55342466
109	0x3dc76a32	0.09737052
110	0xbf2749f3	-0.6534721
111	0xbe93fb17	-0.28902504
112	0x3e279c4b	0.16368215
113	0xbe12bf5f	-0.14330815
114	0xbea677f7	-0.325134
115	0x3e01caa8	0.12674963
116	0xbf046046	-0.517094
117	0xbe3a370b	-0.1818506
118	0xbe22c480	-0.15895271
119	0xbe04602f	-0.12927316
120	0xbe5e1328	-0.21686995
121	0xbe474cbc	-0.19462866
122	0xbeba1eb5	-0.36351553
123	0x3f1ddf8c	0.6166923
124	0x3e2d2642	0.16909125
125	0x3f102cf0	0.5631857
126	0x3e6a72dd	0.2289538
127	0x3db053a1	0.08609701
128	0xbec808d6	-0.3906924
129	0x3e9b4387	0.30324957
130	0x3dba4a94	0.09096256
131	0xbdf41d8c	-0.11919698
132	0x3e1634ff	0.14668654
133	0x3e583762	0.21114877
134	0xbbf7c519	-0.0075613377
135	0x3c177dba	0.009246284
136	0x3c9e5806	0.019329082
137	0xbbd5fcae	-0.006530366
138	0x3cbeaab6	0.02327476
139	0xbccef9d9	-0.025265621
140	0xbd893ddc	-0.06701252
141	0x3d8faf5a	0.070158675
142	0xbc27c7cd	-0.010240507
143	0x3b3668cc	0.002783346

encoder.0.bias f4 [16]
0	0x3ed61b27	0.4181759
1	0x3f0542dd	0.5205515
2	0x3f396e19	0.7243362
3	0x3fbf1263	1.4927486
4	0x3f3a2361	0.72710234
5	0x3f55e5b6	0.83553636
6	0x3f2f910e	0.6858071
7	0xbf8b74d1	-1.0895025
8	0x402df9e0	2.7183762
9	0x3f46b4e2	0.77619755
10	0x4018d535	2.3880131
11	0xbf6f4467	-0.9346375
12	0x3f6721bd	0.90285856
13	0x3ddef45e	0.10886453
14	0x3f1240d6	0.5713018
15	0x408512e8	4.158558

encoder.3.weight f4 [8, 16, 3, 3]
0	0xbd034dce	-0.032056622
1	0x3d11c335	0.035586555
2	0x3d5f970a	0.0545874
3	0xbd397afa	-0.045283295
4	0xbdc8f059	-0.09811468
5	0x3dc40b81	0.09572507
6	0x3e10233c	0.14075941
7	0x3f0b248a	0.5435263
8	0x3e89c21f	0.26905915
9	0x3de12cc2	0.10994865
10	0xbc75ea6c	-0.015009504
11	0xbd8e1227	-0.06937056
12	0xbdcf38ad	-0.10118232
13	0x3dac1584	0.08402541
14	0x3d9cc2b9	0.07654328
15	0x3d41235f	0.047152873
16	0xbe6555e4	-0.22396046
17	0xbe81fbd9	-0.25387457
18	0x3dac3bcf	0.08409845
19	0x3d90dee8	0.07073766
20	0xbd48a5a7	-0.048986103
21	0xbe00c2d3	-0.1257432
22	0x3c2ac891	0.010423795
23	0x3c4813cb	0.01221175
24	0xbd54faf4	-0.05199714
25	0x3e52df17	0.20592915
26	0xbe82c15e	-0.25538152
27	0xbda67e88	-0.08129603
28	0xbc74b0c2	-0.0149347205
29	0xbbe926bc	-0.007115213
30	0x3eb03b4b	0.34420237
31	0x3e8ab625	0.2709209
32	0x3d2b80f7	0.041871037
33	0x3e3d508b	0.18487756
34	0xbe90e5b6	-0.28300256
35	0x3d4155e1	0.04720104
36	0xbdee3386	-0.11630921
37	0xbcb35a05	-0.02189351
38	0xbcfde92a	-0.03099497
39	0x3c5a305b	0.013317193
40	0xbe29d0fc	-0.16583627
41	0x3b9a369d	0.0047062174
42	0x3e0ac5c9	0.13552012
43	0x3f0a2f98	0.5397887
44	0xbd16a5c8	-0.036779195
45	0xbd775170	-0.0603804
46	0xbd853957	-0.06505077
47	0xbd48dbac	-0.04903762
48	0x3d9c6ed0	0.07638323
49	0x3d385adc	0.045008525
50	0x3e2a94aa	0.16658273
51	0xbe398b7d	-0.18119617
52	0x3eb83169	0.35975197
53	0x3dd2e03e	0.10296677
54	0x3c1eb169	0.009685853
55	0xbcbe01b2	-0.023194168
56	0xbc1b9aab	-0.009497325
57	0x3e16454c	0.14674872
58	0xbc58c7aa	-0.013231197
59	0x3d909b66	0.0706089
60	0x3b318c2c	0.0027091606
61	0x3edf287d	0.43585578
62	0xbe614d8b	-0.22002237
63	0xbe11a2d8	-0.14222276
64	0xbddfa975	-0.10920993
65	0x3c004056	0.007827839
66	0x3e1e32ad	0.15449019
67	0xbd22d3e1	-0.039752845
68	0x3c17e479	0.009270781
69	0xbec257c2	-0.3795758
70	0x3e8b35e6	0.2718956
71	0xbe2e5c9d	-0.17027517
72	0xbe5b44fd	-0.21413036
73	0xbdaa2df0	-0.08309543
74	0x3c79e208	0.015251644
75	0x3df729fc	0.12068555
76	0x3de1f348	0.1103273
77	0x3c910d0f	0.017706422
78	0x3e1478f0	0.14499259
79	0xbe630116	-0.22168383
80	0x3eaab4c8	0.3334105
81	0x3e061947	0.1309558
82	0xbca1f922	-0.019772116
83	0x3d17b39b	0.03703652
84	0xbe375ad5	-0.17905743
85	0x3d68d299	0.056841467
86	0xbd81ddd2	-0.06341137
87	0xbe16d45d	-0.14729448
88	0xbe288d4d	-0.16460152
89	0xbc47b5f5	-0.012189378
90	0xbe0bac00	-0.13639832
91	0xbdb24d05	-0.087060966
92	0x3d604d5d	0.05476128
93	0x3e638bb5	0.22221263
94	0xbd2a0d55	-0.04151662
95	0xbda99128	-0.082796395
96	0x3e490794	0.19631797
97	0xbeb7ed2e	-0.3592314
98	0x3c905b1a	0.017621566
99	0x3cbf993c	0.023388498
100	0x3ce55cc6	0.02799834
101	0xbd9ed3b0	-0.0775522
102	0x3d27b259	0.04094157
103	0x3e26f925	0.16305979
104	0x3dd0d6f6	0.101972505
105	0xbe98f4e3	-0.29874334
106	0xbea6f0b8	-0.3260553
107	0xbea9c1d7	-0.331557
108	0x3bf4e90a	0.0074740695
109	0xbc856ac1	-0.016286256
110	0x3caa3dcd	0.020781422
111	0x3dce48c1	0.100724705
112	0x3d90b1e5	0.07065181
113	0x3ce78182	0.028259996
114	0xbdb93e32	-0.09045066
115	0xbe92cc81	-0.2867165
116	0x3d8626c1	0.065503605
117	0xbcc9c123	-0.024628228
118	0xbc05545c	-0.008137789
119	0x3cdb617f	0.026779888
120	0xbe13c486	-0.14430436
121	0xbe7aa27b	-0.24476044
122	0xbda40895	-0.080094494
123	0x3e8933ab	0.26797232
124	0x3e8e6562	0.27811724
125	0x3dbad6a3	0.0912297
126	0x3ca7ad46	0.020468365
127	0xbd0b9bd1	-0.034084145
128	0x3d0cd75c	0.03438507
129	0xbe35f66e	-0.17769787
130	0xbe70fb14	-0.23533279
131	0xbcd44fb2	-0.025916908
132	0xbd458bce	-0.04822903
133	0x3e986196	0.29761952
134	0xbd349a03	-0.04409219
135	0xbea98e73	-0.33116493
136	0xbea6f1ff	-0.32606503
137	0xbd30fa4e	-0.04320746
138	0x3e872beb	0.26400694
139	0x3e088f35	0.13335879
140	0x3e531f85	0.20617492
141	0x3e8d4a60	0.27595806
142	0x3eb44a9c	0.35213172
143	0x3d6ff118	0.058579534
144	0x3dd2c6cd	0.102918245
145	0x3d04fdb2	0.032468505
146	0xbdfaabf8	-0.12239832
147	0xbe0f2e50	-0.1398251
148	0xbd566881	-0.052345756
149	0x3dd57d16	0.10424249
150	0xbdd41489	-0.10355479
151	0xbdb411b9	-0.08792443
152	0xbda05269	-0.078282185
153	0x3e5d153b	0.2159013
154	0xbe3dd809	-0.18539442
155	0x3e6498d7	0.22323929
156	0xbab0b79d	-0.0013482455
157	0x3e29485d	0.1653151
158	0xbce8b089	-0.028404491
159	0x3dbfdffc	0.093688935
160	0x3c5126e8	0.012765624
161	0xbd8cca50	-0.068745255
162	0xbd6fd856	-0.058555923
163	0xbe455578	-0.19270885
164	0x3d0b3fb0	0.033996284
165	0x3d4a088b	0.049324553
166	0xba8f09d6	-0.0010912966
167	0x3eea4e56	0.4576289
168	0x3d24c62b	0.04022805
169	0xbb0bd3c1	-0.0021335932
170	0xbdc76d65	-0.09737662
171	0x3d922964	0.07136801
172	0x3d8df32a	0.069311455
173	0xbe053775	-0.13009436
174	0xbe423a67	-0.18967591
175	0x3dce5a89	0.10075862
176	0xbd4e06ba	-0.050299384
177	0x3d9c6417	0.07636278
178	0xbdddfcad	-0.1083921
179	0x3d1b4754	0.03790982
180	0xbd895559	-0.06705732
181	0xbe1359b2	-0.14389685
182	0xbdcf14a7	-0.10111361
183	0x3c0f1a2a	0.008734265
184	0xbe67186a	-0.22567907
185	0x3ef2765e	0.47355932
186	0xbd8b783c	-0.06810042
187	0xbe3e61eb	-0.1859204
188	0x3d7fec8d	0.06248145
189	0xbe3a116e	-0.18170711
190	0x3e539c46	0.20665082
191	0xbec4b76e	-0.38421196
192	0x3d8846a1	0.066540964
193	0xbe9077e0	-0.28216457
194	0x3eda83a4	0.4267856
195	0xbd72d0a0	-0.05928099
196	0x3e693154	0.22772723
197	0xbda17bad	-0.078849174
198	0xbd96f960	-0.07371783
199	0xbe1a7ac5	-0.15085895
200	0xbe567d9a	-0.2094635
201	0xbd121aed	-0.03567021
202	0xbe699dbe	-0.2281408
203	0x3f1abf01	0.604477
204	0x3df50e9f	0.119656794
205	0xbd15af66	-0.036544226
206	0xbe149789	-0.14510931
207	0xbe2f73db	-0.17134039
208	0x3cfc01b2	0.030762527
209	0xbec9e129	-0.39429596
210	0x3e7e2b17	0.24821125
211	0xbec187f0	-0.37799025
212	0x3ee7998a	0.45234329
213	0xbd2b4cd3	-0.041821312
214	0x3ddce449	0.107857294
215	0xbe9f5f2b	-0.31127295
216	0xbdf6a2c5	-0.120427646
217	0x3e0565c0	0.13027096
218	0x3e9eadd1	0.30991986
219	0xbe57acb9	-0.21061982
220	0x3e814266	0.2524597
221	0x3d078f8e	0.03309589
222	0xbc5f4ad0	-0.0136286765
223	0xbe5b23a8	-0.2140032
224	0xbe04c717	-0.12966572
225	0xbe818d94	-0.25303328
226	0xbd79b810	-0.06096655
227	0x3e54334d	0.20722695
228	0x3e3f077b	0.18655197
229	0x3d01ac76	0.031658612
230	0xbe138a61	-0.14408256
231	0xbd9c833b	-0.07642218
232	0xbca61d3c	-0.020277612
233	0x3dc7c59e	0.09754489
234	0xbddca684	-0.10773948
235	0x3dea4ccc	0.11440429
236	0x3ec10fa4	0.37707245
237	0xbe19806f	-0.149904
238	0x3eb59d53	0.3547159
239	0xbd4c0e96	-0.049818598
240	0xbe057731	-0.13033749
241	0xbdcbe26c	-0.09955296
242	0xbda1036b	-0.0786198
243	0x3d2bcc7f	0.04194307
244	0x3e4efea1	0.2021432
245	0xbe0f2063	-0.13977198
246	0x3dab1866	0.08354263
247	0x3cefd830	0.02927789
248	0xbbfa49a7	-0.0076381746
249	0xbd79ee09	-0.061018024
250	0x3e2ed4ef	0.17073415
251	0xbdd1eccf	-0.10250246
252	0x3d8d4929	0.0689872
253	0x3dc13fa7	0.09435969
254	0x3da6d8d4	0.081468254
255	0x3e30f0eb	0.17279403

encoder.3.bias f4 [8]
0	0x3e7a21bb	0.2442693
1	0x3e6a9ea9	0.22912087
2	0x3c8be7a4	0.017078228
3	0x3ede5c83	0.43429956
4	0xbe117067	-0.14203034
5	0x3ed36966	0.4129135
6	0x3e9fedee	0.31236213
7	0xbdaf31c1	-0.08554412

decoder.0.weight f4 [8, 16, 3, 3]
0	0x3eb43ce3	0.35202703
1	0x3cf8e2e0	0.03038162
2	0xbc952996	-0.018208306
3	0x3e0fafd8	0.14031923
4	0xbb419d14	-0.0029543089
5	0xbc92ed28	-0.01793535
6	0x3dc335eb	0.095317684
7	0x3e203b60	0.1564765
8	0x3e40a085	0.18811233
9	0x3bb5eaf1	0.005551689
10	0x3ed7cf08	0.4215014
11	0xbd2f9110	-0.04286295
12	0xbe0d3794	-0.13790733
13	0xbebfb5b3	-0.37443313
14	0xbf0e0020	-0.5546894
15	0x3d512ede	0.051070087
16	0xbe8a6c75	-0.2703587
17	0xbde0aa71	-0.10970009
18	0x3e32fae3	0.17478518
19	0xbd359c95	-0.04433878
20	0xbd61122b	-0.054948967
21	0x3d3e9d2a	0.046536602
22	0x3e057078	0.13031185
23	0x3c4f50f3	0.012653577
24	0x3dc063ef	0.09394061
25	0xbdbd01ee	-0.09228884
26	0xbe68be5e	-0.2272887
27	0x3ccabe4c	0.024748944
28	0xbe7227a7	-0.23647939
29	0xbd82cd34	-0.06386796
30	0xbc8f942a	-0.017526705
31	0x3d10b84c	0.03533201
32	0x3e83bae9	0.2572854
33	0x3ddb1af3	0.106984995
34	0xbe1947c9	-0.1496879
35	0x3e670cdb	0.22563498
36	0xbe9b4558	-0.30326343
37	0x3e442cb8	0.19157684
38	0x3de4cb16	0.11171548
39	0x3cee2c65	0.029073903
40	0xbcd77ad9	-0.026303696
41	0xbe2a6448	-0.16639817
42	0xbcd3e729	-0.025867062
43	0xbe9d8069	-0.30762032
44	0xbebafb52	-0.36519867
45	0x3e171adc	0.1475634
46	0x3d90ced1	0.07070697
47	0x3ca1c07c	0.019745104
48	0xbd2aa67a	-0.04166267
49	0xbc03312d	-0.00800733
50	0xbe399c91	-0.18126132
51	0x3d024d38	0.031811923
52	0xbb923161	-0.004461453
53	0x3d36b17f	0.044602867
54	0x3e7a70e0	0.24457121
55	0x3e8420fe	0.2580642
56	0x3f17fab4	0.5936692
57	0x0008a1bf	7.92708e-40
58	0x3e531a1d	0.2061543
59	0x0001f713	1.80469e-40
60	0xbc950af5	-0.018193701
61	0xbd8d3df6	-0.06896584
62	0xbdc1a207	-0.094547324
63	0x3eac0981	0.33601
64	0xbcd59866	-0.026073646
65	0x3f04fb1f	0.5194568
66	0xbeeb5731	-0.4596496
67	0xab9321af	-1.0454327e-12
68	0xbe9a3865	-0.3012115
69	0xbc18b01c	-0.0093193315
70	0x3a2a94a4	0.00065071345
71	0xbf09e039	-0.5385776
72	0x3dcb7e9a	0.09936257
73	0x3c7c151e	0.015385894
74	0xbd95d9f7	-0.07316964
75	0x3eb4c009	0.3530276
76	0xbd120aaf	-0.03565472
77	0xbd4715ea	-0.048604883
78	0x3f306582	0.6890489
79	0xbde1b162	-0.11020161
80	0xbdddc3c2	-0.108283535
81	0xbdbc7903	-0.09202769
82	0x3e788129	0.2426802
83	0xbcc76225	-0.024338791
84	0xbd448cd7	-0.047985878
85	0xbde24e18	-0.110500515
86	0x3d847385	0.06467346
87	0x3e4c1532	0.1992996
88	0xbbe5c896	-0.007012437
89	0x3dd68b0f	0.10475742
90	0x3cb2b725	0.021815846
91	0x3d9e1563	0.07718923
92	0xbd4f9c00	-0.050685883
93	0xbd2f5a0b	-0.04281048
94	0xbcfddc54	-0.03098885
95	0x3e075193	0.13214712
96	0xbdb4f9c6	-0.08836703
97	0x3e36f87f	0.17868231
98	0x3e090cea	0.13383833
99	0x3e837951	0.25678495
100	0x3d78c579	0.0607352
101	0x3dfbd581	0.12296582
102	0xbeae0435	-0.33987585
103	0xbd645b9e	-0.055751435
104	0xbd4f3909	-0.050591502
105	0x3d4a1f09	0.049346004
106	0x3dad0fec	0.084503025
107	0xbd2b44d8	-0.0418137
108	0xbe02dcfe	-0.12779614
109	0x3dc6da8e	0.09709655
110	0x3e487f25	0.19579752
111	0x3e5d0d09	0.21587004
112	0xbc002981	-0.007822395
113	0xbdc58213	-0.0964395
114	0x3e3941c1	0.1809149
115	0x3d97ac4d	0.07405911
116	0x3e503820	0.2033391
117	0x3db50a60	0.088398695
118	0x3e25d842	0.16195777
119	0xbdb64962	-0.089007154
120	0xb7079145	-8.08045e-06
121	0x8014dc57	-1.915753e-39
122	0xbf00546d	-0.50128824
123	0xbdb50347	-0.08838516
124	0x3e1556e5	0.14583929
125	0xbe4f37f2	-0.20236185
126	0xbe7a10e2	-0.24420503
127	0x3d477747	0.048697736
128	0xbeae7de9	-0.34080437
129	0x80089e67	-7.91508e-40
130	0x00114b7f	1.588286e-39
131	0x80004781	-2.5651e-41
132	0xbe0c4418	-0.1369785
133	0xbd7a61fd	-0.061128605
134	0xbdc6c169	-0.09704859
135	0x3d00976e	0.031394415
136	0x3b5ad8e8	0.0033393446
137	0xbe674312	-0.22584179
138	0x3efbf8dd	0.49213305
139	0xb524b3a9	-6.13562e-07
140	0xbe5bea9c	-0.21476215
141	0xbb574fbe	-0.0032853927
142	0x3e48decc	0.1961624
143	0xbe1afa3e	-0.15134522
144	0xbecbf20d	-0.39833108
145	0x3d2415c1	0.04005981
146	0xbc9c488f	-0.019077567
147	0xbe4a1da6	-0.19737872
148	0x3d9cd135	0.076570906
149	0x3e9e30ed	0.30896702
150	0x3f2a4af4	0.6652062
151	0xbf45745a	-0.77130663
152	0x3e4a45a1	0.19753124
153	0x3d968c2e	0.07350956
154	0x3d357047	0.04429653
155	0xbd2ce9fa	-0.042215325
156	0x3db0a98d	0.08626089
157	0xbe0f2c78	-0.13981807
158	0x3ea8fd1b	0.33005604
159	0xbda6e85e	-0.08149789
160	0xbcd9d513	-0.02659086
161	0xbc56cdcb	-0.013110588
162	0xbe0ecf84	-0.13946348
163	0x3d37c3f7	0.04486462
164	0x3e7b26b7	0.24526487
165	0x3b6fa9b8	0.0036569666
166	0xbc6ca9b2	-0.014444755
167	0x3cd26845	0.025684485
168	0xbf4a19e3	-0.7894575
169	0x3f50d5d0	0.8157625
170	0xbf33d085	-0.7024005
171	0xbdbba8d1	-0.091630585
172	0x3e1deefe	0.154232
173	0x3d40c59a	0.047063448
174	0x3d5eac87	0.054363754
175	0x3dbc7588	0.09202105
176	0x3dcdc0a2	0.100465074
177	0x3ecd5694	0.40105116
178	0xbeebf08f	-0.4608197
179	0xbced48f5	-0.028965453
180	0xbdb696ea	-0.08915503
181	0xbd4ce073	-0.05001874
182	0xbeb4723b	-0.352434
183	0xbdbc3153	-0.09189095
184	0xbcd76f0d	-0.02629807
185	0xbe331b9c	-0.17491001
186	0xbd0b6fb6	-0.034042083
187	0xbda234f9	-0.0792026
188	0xbf1dd4de	-0.61652935
189	0xbe25bcd6	-0.16185316
190	0x3b46074e	0.0030216756
191	0xbe15f200	-0.14643097
192	0xbec77418	-0.3895576
193	0x3c541bdf	0.012946098
194	0xbda0e50a	-0.07856186
195	0xbe2e7c2a	-0.17039552
196	0xbf33dc71	-0.7025824
197	0xbdaa7a5b	-0.08324119
198	0x3da2a379	0.07941336
199	0x3d87f4ce	0.0663849
200	0x3e035adf	0.12827633
201	0x000a3aa6	9.39394e-40
202	0x3cdcb271	0.026940556
203	0x80025421	-2.13851e-40
204	0xbf1f61be	-0.6225852
205	0x3d1941de	0.03741633
206	0xbe32a5f4	-0.17446119
207	0xbe402d96	-0.1876739
208	0xbd5fa77d	-0.05460309
209	0xbd87673a	-0.06611486
210	0xbe9124e1	-0.2834845
211	0x00072b3c	6.58358e-40
212	0xbd8e667c	-0.06953141
213	0x3eee7c18	0.4657905
214	0xbeb902a5	-0.3613483
215	0xbf27a8a1	-0.6549168
216	0xbeccc871	-0.39996675
217	0x3d419d65	0.047269244
218	0xbb1b1eb9	-0.0023669435
219	0xbcc0b6ff	-0.02352476
220	0xbd1edae7	-0.03878298
221	0xbc333dfd	-0.010940072
222	0x3e76cfb0	0.24102664
223	0xbdd9fbc9	-0.10643727
224	0xbe907e1e	-0.2822122
225	0xbe166dfe	-0.14690396
226	0xbdded855	-0.10881106
227	0x3e18d651	0.14925505
228	0x3ea2e28c	0.31813467
229	0xbe00d972	-0.12582949
230	0x3e757352	0.23969772
231	0xbf05d985	-0.52285033
232	0xbe8c1c4f	-0.27365348
233	0x3edd7262	0.4325133
234	0x3d078d56	0.033093773
235	0xbdde435c	-0.108526915
236	0xbdb5520d	-0.088535406
237	0xbe80ae92	-0.25133187
238	0xbd03ff06	-0.03222563
239	0xbe481eb8	-0.19542968
240	0xbe13b3c6	-0.14424047
241	0x3d18bf1e	0.03729164
242	0xbf113d2f	-0.56733984
243	0x3c08ef42	0.008357825
244	0xbd17f36f	-0.03709739
245	0x3dca9f27	0.09893637
246	0xbcbd2ee4	-0.023093648
247	0x3e1c5bfc	0.15269464
248	0xbd5d4846	-0.054024003
249	0x3afaf378	0.0019146046
250	0xbec9c818	-0.39410472
251	0xbe24437b	-0.16041367
252	0xbd173e5b	-0.0369247
253	0xbd993d16	-0.07482354
254	0x3d874a5d	0.066059805
255	0xbdab1ab1	-0.083547

decoder.0.bias f4 [16]
0	0x3ec45b36	0.38350838
1	0xbe96dc17	-0.2946479
2	0xbf8c0e9a	-1.0941956
3	0xbe39c52b	-0.1814162
4	0x3dd50fe4	0.104034215
5	0x3ed63d95	0.41843858
6	0xbf2b9103	-0.67018145
7	0xbd47dd54	-0.04879506
8	0x3f995b03	1.19809
9	0xbe925933	-0.2858368
10	0x3e9699b6	0.29414147
11	0xbf418e7b	-0.7560803
12	0x3e65d3ab	0.22444026
13	0xbf0cc5a3	-0.5498907
14	0xbe4c6a8d	-0.19962521
15	0xbcba257c	-0.022722952

decoder.2.weight f4 [16, 8, 5, 5]
0	0x3e67cb6c	0.22636193
1	0xbe29b941	-0.16574575
2	0xbe832c2a	-0.25619632
3	0x3d7cdb92	0.061732836
4	0xbd94588c	-0.072434515
5	0xbd349dde	-0.044095866
6	0xbe62b3ca	-0.22138897
7	0xbeb678bc	-0.35638988
8	0xbccc4a97	-0.024937911
9	0xbdea348a	-0.11435802
10	0x3ce65c27	0.028120114
11	0x3d260c78	0.040539235
12	0x3e801149	0.25013188
13	0x3ce3f53c	0.027826898
14	0x3c7dadbc	0.015483316
15	0xbecdebb6	-0.40218896
16	0x3e2ca923	0.16861396
17	0xbd1c2b9b	-0.038127523
18	0x3c1be6b6	0.009515455
19	0xbdc035e4	-0.09385279
20	0xbce61850	-0.028087765
21	0x3d4c3cf0	0.049862802
22	0x3e211b48	0.15733063
23	0xbc97690f	-0.018482713
24	0x3e45f5b5	0.19332011
25	0x3e38afb0	0.1803577
26	0xbef339ed	-0.4750513
27	0xbdd26564	-0.10273245
28	0x3cfd88af	0.030948965
29	0xbda4bab3	-0.080434225
30	0xbe3e3f87	-0.18578921
31	0x3db0190f	0.085985295
32	0x3d29aaf6	0.041422807
33	0x3e155a3a	0.145852
34	0xbd7a4c3e	-0.061107866
35	0x3d97886f	0.073990695
36	0x3bf712a1	0.0075400625
37	0x0008f7b8	8.23549e-40
38	0x3d8eb381	0.069678314
39	0xbf033a29	-0.5126062
40	0xbe28a177	-0.16467844
41	0x3e4f38d4	0.20236522
42	0x3e6e9c9e	0.23301932
43	0x3de75ba1	0.11296774
44	0xbe84f89c	-0.25970924
45	0x3dc92fd9	0.09823579
46	0x3da2d229	0.07950241
47	0x3e868fa7	0.26281473
48	0x3dedce6a	0.11611636
49	0xbe55aa60	-0.20865774
50	0x3ea4bf27	0.32177088
51	0x3e949131	0.29017022
52	0x3dfb4cef	0.12270533
53	0xbc934b4f	-0.017980246
54	0xbd1a3ac4	-0.0376537
55	0x3eda33f6	0.42617768
56	0xbc3afeba	-0.011413271
57	0xbe844cd0	-0.25839853
58	0xbdb6c43c	-0.089241475
59	0x3e333cde	0.17503688
60	0x3cee1544	0.029062875
61	0xbe807613	-0.25090083
62	0xbe158c53	-0.1460431
63	0x3c289039	0.010288292
64	0x3d6bc5c5	0.057561655
65	0xbe2911e7	-0.16510735
66	0xbd743f29	-0.059630547
67	0xbd577125	-0.052598137
68	0x3e3128db	0.17300741
69	0x3aba8072	0.0014228954
70	0xbcd851da	-0.026406217
71	0x3af7f679	0.0018918059
72	0x3db8592f	0.090013854
73	0xbaffd9ad	-0.0019519828
74	0x3e87a64c	0.26494062
75	0x3db24c01	0.08705903
76	0xbe199b75	-0.15000708
77	0xbd97b941	-0.07408381
78	0x3e87e508	0.26541924
79	0xbde860d0	-0.113465905
80	0xbf216acb	-0.6305358
81	0x3ea40daa	0.32041675
82	0x3c7e5859	0.015523993
83	0xbdee1195	-0.11624447
84	0xbdf242af	-0.11829125
85	0xbdb248d6	-0.087052986
86	0xbea8b55e	-0.32950872
87	0x3d1de24b	0.038545888
88	0xbeac6eae	-0.33678192
89	0xbe9c53c0	-0.30532646
90	0xbde378c8	-0.111070216
91	0xbd654400	-0.055973053
92	0x3df50797	0.11964338
93	0xbdfeaae0	-0.124349356
94	0xbd8aed24	-0.06783512
95	0x3d392c60	0.045208335
96	0x3d840403	0.06446078
97	0xbc9846dd	-0.018588478
98	0xbd95858e	-0.07300864
99	0xbd82f029	-0.06393463
100	0x3dc1d43d	0.09464309
101	0xbeb74ea0	-0.35802174
102	0x3d493766	0.049125098
103	0x3d4865d1	0.048925225
104	0x3ce874c7	0.028375996
105	0xbe48b371	-0.19599701
106	0x3d14b3cd	0.036304284
107	0xbee4c3cd	-0.44680634
108	0x3e7bae3a	0.24578181
109	0x3df6b816	0.1204683
110	0xbef13350	-0.4710946
111	0xbec8ec1d	-0.3924264
112	0x3e5aedf0	0.21379828
113	0x3e04964a	0.12947956
114	0x3ddeba96	0.10875432
115	0xbd0143ed	-0.03155892
116	0x3df6bb71	0.1204747
117	0x3e7629f7	0.24039446
118	0x3eda153f	0.42594334
119	0xbaa8976e	-0.0012862512
120	0xbd5d3a89	-0.0540109
121	0x3d23c2b6	0.039980613
122	0x3d7952f3	0.060870122
123	0x3ea90f12	0.3301931
124	0xbe85fe36	-0.2617051
125	0xbebecc75	-0.37265363
126	0x3e0c9638	0.13729179
127	0x3e865489	0.2623637
128	0xbdd3b96c	-0.10338101
129	0x3e45228c	0.1925146
130	0x3db8582b	0.09001192
131	0x3e4d7895	0.2006553
132	0xbc1a1a3c	-0.009405669
133	0x3e19dc86	0.1502553
134	0xbe14a166	-0.14514694
135	0xbea2833e	-0.31740755
136	0xbe3cbaa9	-0.1843058
137	0x3eab4633	0.33451995
138	0xbddf9ff8	-0.109191835
139	0x3de2545d	0.11051247
140	0xbe073e17	-0.13207279
141	0xbd0e8209	-0.03479198
142	0x3e1a858e	0.1509001
143	0xbe373754	-0.178922
144	0x3cee62c6	0.029099833
145	0xbe2c1aa7	-0.16807042
146	0xbd0ee5db	-0.034887176
147	0xbe13c5ab	-0.14430873
148	0xbbd86234	-0.0066035036
149	0xbe8bde77	-0.27318165
150	0x3d8b988e	0.06816207
151	0x3da7c45c	0.081917495
152	0x3e3cab53	0.1842473
153	0x3d88ac75	0.066735186
154	0xbe18e866	-0.14932403
155	0xbd245295	-0.04011782
156	0xbd779732	-0.060446925
157	0x3e4d54ea	0.20051923
158	0x3de19c8d	0.11016188
159	0xbe2cbdf9	-0.16869344
160	0xbe9f56e9	-0.31120995
161	0x3d61de33	0.055143546
162	0x3e244c16	0.1604465
163	0xbdbc9f3a	-0.092100576
164	0x3c29b152	0.010357218
165	0xbd275e1c	-0.040861234
166	0x3d2d5764	0.04231967
167	0x3cf8400e	0.030303981
168	0x3ea03917	0.31293556
169	0xbdcb74a6	-0.09934358
170	0x3c2e86e2	0.010652276
171	0x3dc4152d	0.095743515
172	0x3da57f14	0.08080879
173	0x3e25e4da	0.16200581
174	0x3da210e4	0.07913378
175	0x3e467040	0.19378757
176	0xbd84778d	-0.06468115
177	0xbd817620	-0.06321359
178	0x3da48da0	0.08034825
179	0xbd786dea	-0.060651697
180	0x3e9ea893	0.30987987
181	0x3e85fc3f	0.2616901
182	0x3c9b5d37	0.018965347
183	0x3da45bfc	0.08025357
184	0x3e6fd62a	0.23421541
185	0x3eaebde8	0.34129262
186	0x3eba8b9b	0.36434636
187	0xbde8ead1	-0.11372913
188	0x3e11b7dd	0.14230295
189	0x3e19422e	0.14966652
190	0x3def70e8	0.11691457
191	0x3d1d718e	0.038438372
192	0xbed4b614	-0.41545165
193	0x3d8a0c9b	0.067406856
194	0xbe0f4701	-0.1399193
195	0xbdc6159a	-0.09672089
196	0xbe202899	-0.15640487
197	0x3d7be47c	0.061497197
198	0x3d920f85	0.07131866
199	0x3e31dd13	0.1736949
200	0x3e271d36	0.16319737
201	0xbe8e0451	-0.27737668
202	0x3dfa8f4a	0.122343615
203	0x3e38380c	0.1799013
204	0x3e653074	0.22381765
205	0xbd8457bd	-0.06462047
206	0x3e22aaf2	0.15885523
207	0x3e046d21	0.12932254
208	0x3e53c4e3	0.20680575
209	0x3e714bbb	0.23564045
210	0xbe4b8485	-0.19874771
211	0x3bc92de9	0.006139506
212	0x3e0bc9ac	0.1365115
213	0xbde65d5d	-0.112482764
214	0x3e0bb215	0.13642152
215	0x3d0f3890	0.03496605
216	0xbe0021e4	-0.12512928
217	0xbec27286	-0.37978
218	0xbe8905d3	-0.26762256
219	0x3e79e262	0.24402764
220	0x3e285dae	0.16441986
221	0xbdbac1cc	-0.09118995
222	0x3e2a4bf5	0.16630538
223	0x3dbc31ba	0.09189172
224	0xbe7fe163	-0.24988322
225	0x3d5036de	0.050833575
226	0xbe160455	-0.1465009
227	0xbc024db9	-0.007953101
228	0x3d56c387	0.052432563
229	0x3e17a88f	0.14810394
230	0x3e89c5db	0.26908764
231	0xbd7113ff	-0.05885696
232	0x3f08cec8	0.53440523
233	0x3e190358	0.14942682
234	0x3eda8087	0.42676184
235	0xbe2216c4	-0.15828997
236	0xbecece5e	-0.4039182
237	0x8008d1a7	-8.09893e-40
238	0x3e4a1f0b	0.19738404
239	0x3ed58ed5	0.41710535
240	0x3d7968a3	0.060890805
241	0xbe8c4da0	-0.27402973
242	0xbe7b1b75	-0.24522193
243	0xbdb1ce86	-0.08681969
244	0x3ccc66fe	0.024951454
245	0xbd7742fa	-0.06036661
246	0xbdf8496d	-0.1212338
247	0xbe31c75c	-0.17361206
248	0xbe36c2eb	-0.17847793
249	0x3d9ceb50	0.0766207
250	0x3ca0879d	0.019595915
251	0x3d73d11d	0.059525598
252	0x3e981450	0.29702997
253	0x3dfa383d	0.12217758
254	0xbd64221c	-0.05569659
255	0xbd8f64d5	-0.07001654

decoder.2.bias f4 [8]
0	0x3f0d3041	0.55151755
1	0xbe1dd009	-0.1541139
2	0xbe9ec9c6	-0.31013316
3	0x3eccb409	0.39981106
4	0x3d6d9e58	0.058012336
5	0xbe71592d	-0.23569174
6	0xbed3f073	-0.41394386
7	0xbef8f871	-0.48627046

decoder.4.weight f4 [8, 1, 2, 2]
0	0x3f5842ce	0.84476936
1	0x3f77b4b3	0.967601
2	0x3f5aa5c6	0.854092
3	0x3f6a13da	0.9143654
4	0xbfb9aaca	-1.4505246
5	0xbf925bb4	-1.1434236
6	0xbf97a73f	-1.1847914
7	0xbf630886	-0.8868488
8	0x3e07a471	0.13246323
9	0xbf0d814a	-0.55275404
10	0xbf17f0b0	-0.59351635
11	0xbfa243f9	-1.2676994
12	0xbf831c22	-1.024296
13	0xbf9a8700	-1.2072449
14	0xbf9e40f8	-1.2363577
15	0xbfaf3eac	-1.3691001
16	0x3f6a5729	0.91539246
17	0x3f6a3bb0	0.91497326
18	0x3f8cdd06	1.1004951
19	0x3f82d6fa	1.0221856
20	0xbf9a9bdb	-1.2078813
21	0xbfa36daf	-1.2767848
22	0xbf8c317c	-1.0952601
23	0xbf8ca935	-1.0989138
24	0xbf4ba90e	-0.7955483
25	0x3d6f8959	0.058480594
26	0xbf8a029a	-1.0782044
27	0xbe52f611	-0.2060168
28	0xbf8d1aab	-1.1023763
29	0xbf974ab2	-1.181967
30	0xbef34552	-0.47513825
31	0xbf03e5d3	-0.5152256
